[2020-06-29 15:36:15,423][__main__][INFO] - Random Seed: 999
/home/usocky/Self-Attention-Gan
[2020-06-29 15:36:17,968][__main__][INFO] - Generator(
  (layer1): Sequential(
    (0): ConvTranspose2d(100, 512, kernel_size=(4, 4), stride=(1, 1), bias=False)
    (1): BatchNorm2d(512, eps=1e-05, momentum=0.1, affine=True, track_running_stats=True)
    (2): ReLU(inplace=True)
  )
  (layer2): Sequential(
    (0): ConvTranspose2d(512, 256, kernel_size=(4, 4), stride=(2, 2), padding=(1, 1), bias=False)
    (1): BatchNorm2d(256, eps=1e-05, momentum=0.1, affine=True, track_running_stats=True)
    (2): ReLU(inplace=True)
  )
  (layer3): Sequential(
    (0): ConvTranspose2d(256, 128, kernel_size=(4, 4), stride=(2, 2), padding=(1, 1), bias=False)
    (1): BatchNorm2d(128, eps=1e-05, momentum=0.1, affine=True, track_running_stats=True)
    (2): ReLU(inplace=True)
  )
  (self_attention1): Self_Attention(
    (query_conv): Conv2d(128, 16, kernel_size=(1, 1), stride=(1, 1))
    (key_conv): Conv2d(128, 16, kernel_size=(1, 1), stride=(1, 1))
    (value_conv): Conv2d(128, 128, kernel_size=(1, 1), stride=(1, 1))
    (softmax): Softmax(dim=-2)
  )
  (layer4): Sequential(
    (0): ConvTranspose2d(128, 64, kernel_size=(4, 4), stride=(2, 2), padding=(1, 1), bias=False)
    (1): BatchNorm2d(64, eps=1e-05, momentum=0.1, affine=True, track_running_stats=True)
    (2): ReLU(inplace=True)
  )
  (self_attention2): Self_Attention(
    (query_conv): Conv2d(64, 8, kernel_size=(1, 1), stride=(1, 1))
    (key_conv): Conv2d(64, 8, kernel_size=(1, 1), stride=(1, 1))
    (value_conv): Conv2d(64, 64, kernel_size=(1, 1), stride=(1, 1))
    (softmax): Softmax(dim=-2)
  )
  (last): Sequential(
    (0): ConvTranspose2d(64, 3, kernel_size=(4, 4), stride=(2, 2), padding=(1, 1), bias=False)
    (1): Tanh()
  )
)
[2020-06-29 15:36:17,989][__main__][INFO] - Discriminator(
  (layer1): Sequential(
    (0): Conv2d(3, 64, kernel_size=(4, 4), stride=(2, 2), padding=(1, 1), bias=False)
    (1): LeakyReLU(negative_slope=0.2, inplace=True)
  )
  (layer2): Sequential(
    (0): Conv2d(64, 128, kernel_size=(4, 4), stride=(2, 2), padding=(1, 1), bias=False)
    (1): BatchNorm2d(128, eps=1e-05, momentum=0.1, affine=True, track_running_stats=True)
    (2): LeakyReLU(negative_slope=0.2, inplace=True)
  )
  (layer3): Sequential(
    (0): Conv2d(128, 256, kernel_size=(4, 4), stride=(2, 2), padding=(1, 1), bias=False)
    (1): BatchNorm2d(256, eps=1e-05, momentum=0.1, affine=True, track_running_stats=True)
    (2): LeakyReLU(negative_slope=0.2, inplace=True)
  )
  (self_attention1): Self_Attention(
    (query_conv): Conv2d(256, 32, kernel_size=(1, 1), stride=(1, 1))
    (key_conv): Conv2d(256, 32, kernel_size=(1, 1), stride=(1, 1))
    (value_conv): Conv2d(256, 256, kernel_size=(1, 1), stride=(1, 1))
    (softmax): Softmax(dim=-2)
  )
  (layer4): Sequential(
    (0): Conv2d(256, 512, kernel_size=(4, 4), stride=(2, 2), padding=(1, 1), bias=False)
    (1): BatchNorm2d(512, eps=1e-05, momentum=0.1, affine=True, track_running_stats=True)
    (2): LeakyReLU(negative_slope=0.2, inplace=True)
  )
  (self_attention2): Self_Attention(
    (query_conv): Conv2d(512, 64, kernel_size=(1, 1), stride=(1, 1))
    (key_conv): Conv2d(512, 64, kernel_size=(1, 1), stride=(1, 1))
    (value_conv): Conv2d(512, 512, kernel_size=(1, 1), stride=(1, 1))
    (softmax): Softmax(dim=-2)
  )
  (last): Sequential(
    (0): Conv2d(512, 1, kernel_size=(4, 4), stride=(1, 1), bias=False)
  )
)
Starting Training Loop...
[0/10000][0/16]	Loss_D: 2.0354	Loss_G: 3.4268	D(x): -0.1689	D(G(z)): -0.1364 / -3.4268
[1/10000][0/16]	Loss_D: 0.0809	Loss_G: 3.1021	D(x): 1.4461	D(G(z)): -1.7683 / -3.1021
[2/10000][0/16]	Loss_D: 0.1472	Loss_G: 11.2133	D(x): 1.2062	D(G(z)): -8.5395 / -11.2133
[3/10000][0/16]	Loss_D: 0.1829	Loss_G: 9.9479	D(x): 1.3563	D(G(z)): -7.2538 / -9.9479
…
